demos/checkpoints/holdout.pth (torch_old, 863779 bytes, 16 tensors)

conv_layer.0.weight f4 [32, 3, 5, 5]
0	0x3d1bea1d	0.038065065
1	0xbcad2641	-0.021136405
2	0xbddded6a	-0.10836299
3	0xbc8f5449	-0.017496245
4	0xbd10ab4a	-0.035319604
5	0xbdc65811	-0.09684766
6	0x3d7f9433	0.062397193
7	0xbe17c317	-0.14820515
8	0x3de0d3c5	0.10977892
9	0xbe015269	-0.12629093
10	0x3ca452b9	0.020058976
11	0xbe0de993	-0.13858633
12	0xbd3d3346	-0.046191476
13	0x3e043c3f	0.12913607
14	0xbdaa3b58	-0.083121
15	0x3cfe377c	0.031032316
16	0xbddc1bff	-0.10747527
17	0x3d170536	0.036870204
18	0xbdaa2f3a	-0.08309789
19	0x3d36acd2	0.044598408
20	0xbdce7038	-0.10079998
21	0xbc1c5f04	-0.009544138
22	0xbca057f5	-0.019573191
23	0x3e0c7c0c	0.13719195
24	0xbce3d8bf	-0.027813314
25	0x3db4151d	0.087930895
26	0x3e354313	0.17701368
27	0x3dd8658c	0.105662435
28	0x3d6eafcd	0.058273125
29	0x3d7587d0	0.059943974
30	0x3d9338d3	0.07188573
31	0xbc93970f	-0.018016366
32	0xbbbca6da	-0.005757195
33	0x3e164eb7	0.14678465
34	0xbdc77faf	-0.097411506
35	0x3dc58979	0.096453615
36	0xbc91acf5	-0.017782668
37	0x3e39ccd0	0.18144536
38	0x3e2bf647	0.16793166
39	0xbdfa35dd	-0.12217305
40	0x3cd0a9bd	0.025471563
41	0x3e0b6572	0.13612917
42	0x3d318ebd	0.043349016
43	0xbdbf95a3	-0.09354713
44	0xbdbe61a7	-0.092959695
45	0x3dba619d	0.091006495
46	0x3d395ce2	0.045254596
47	0xbd5e68b5	-0.054299075
48	0x3df8e38e	0.121527776
49	0xbdfbd955	-0.12297312
50	0xbcade1f2	-0.021225903
51	0xbdbee221	-0.093204744
52	0xbddea15f	-0.10870623
53	0x3be73326	0.007055658
54	0xbc17336e	-0.00922857
55	0xbdb5e726	-0.08881979
56	0xbd6ea692	-0.058264323
57	0xbe02cbdf	-0.12773083
58	0xbce49003	-0.027900701
59	0x3d99b1a7	0.075045876
60	0x3d89801c	0.06713888
61	0xbde7def2	-0.1132182
62	0xbd21886d	-0.039436746
63	0x3d9661a4	0.07342842
64	0x3d17a09c	0.037018403
65	0x3d73c3e6	0.059512995
66	0x3d928676	0.07154553
67	0xbdb7ae4d	-0.08968792
68	0x3d24322b	0.040086906
69	0xbc8edfdc	-0.017440729
70	0xbdd2de3a	-0.102962926
71	0xbd0384ae	-0.032108955
72	0xbe1d8654	-0.15383273
73	0x3d3bc2f6	0.045840226
74	0x3dcbce5c	0.09951469
75	0xbc7d6904	-0.015466932
76	0x3cba6821	0.02275473
77	0x3caf470c	0.021396182
78	0xbd7a5781	-0.061118606
79	0x3d79c37c	0.060977444
80	0xbc65211e	-0.0139849465
81	0xbd68a80d	-0.05680089
82	0x3bf036d3	0.0073307543
83	0x3d5233f3	0.051319074
84	0x3e1a37b3	0.1506031
85	0x3d592a7f	0.053019043
86	0xbdb2c6da	-0.08729334
87	0xbe0b5407	-0.13606273
88	0x3e33deb2	0.1756542
89	0x3e3a2410	0.18177819
90	0x3c67b234	0.014141608
91	0x3c2435cd	0.010022593
92	0x3e0630bc	0.13104528
93	0x3eb1062d	0.34575024
94	0xbbb7d2d9	-0.005609852
95	0x3d8f8815	0.070083775
96	0x3d28d810	0.04122168
97	0x3e2da8d3	0.16958933
98	0x3d641fbb	0.055694323
99	0xbe7e9fcd	-0.24865647
100	0xbc5f25d5	-0.01361986
101	0xbd220dab	-0.039563816
102	0xbc77143c	-0.015080508
103	0xbdb01735	-0.085981764
104	0xbce08eb9	-0.027411805
105	0x3d0fdc09	0.03512195
106	0x3ce7e734	0.028308488
107	0xbdc68cf2	-0.09694852
108	0xbbaa3bcf	-0.005195118
109	0x3c9c2c3f	0.019064067
110	0x3d5138ec	0.051079676
111	0xbd45d657	-0.048300114
112	0xbbc62588	-0.0060469545
113	0x3d183a03	0.0371647
114	0x3dd231f4	0.10263434
115	0x3da72391	0.08161081
116	0xbd31e799	-0.04343376
117	0x3dbf69fb	0.09346386
118	0x3e31a09e	0.17346427
119	0x3d08a98f	0.03336483
120	0x3d3245fd	0.043523777
121	0x3d012095	0.031525213
122	0x3e26d5e2	0.16292527
123	0xbd90c372	-0.07068528
124	0xbcefb470	-0.029260844
125	0x3d5e3424	0.054248944
126	0xbb90ec33	-0.0044226884
127	0xbdb1ea70	-0.086872935
128	0x3dd3b150	0.10336554
129	0x3b63d099	0.0034761785
130	0xbdd4e7f4	-0.10395804
131	0xbcf12a49	-0.029439108
132	0xbd50bb8c	-0.05096011
133	0xbd51138e	-0.05104404
134	0x3dc67e78	0.09692091
135	0xbd92dd5c	-0.07171127
136	0xbdea0d67	-0.114283375
137	0xbe237bc4	-0.15965182
138	0x3d7f9fef	0.062408384
139	0x3dc4aa4b	0.09602793
140	0xbda96b01	-0.082723625
141	0xbe027fef	-0.12744115
142	0xbd6cd60b	-0.057821315
143	0x3e512af2	0.20426539
144	0xbc33330f	-0.010937466
145	0xbd6e9f72	-0.058257528
146	0xbacac8d8	-0.0015471233
147	0x3df6b235	0.12045709
148	0x3da5fa40	0.08104372
149	0xbe16df9b	-0.14733736
150	0xbdc39a76	-0.095509455
151	0x3b03c886	0.0020108535
152	0xbddee8a4	-0.108842164
153	0xbd1be0b3	-0.038056087
154	0x3d99dacf	0.075124376
155	0xbdd006fd	-0.10157583
156	0x3d7295d6	0.059224926
157	0x3cb9bb50	0.022672325
158	0x3b2ef222	0.0026694615
159	0xbd9a2cf8	-0.07528108
160	0xbdab9781	-0.083785065
161	0xbbd95aa8	-0.0066331215
162	0xbda8ca3e	-0.082417
163	0x3e06b814	0.13156158
164	0x3db7bc90	0.08971512
165	0xbc0670f5	-0.008205642
166	0x3deb915a	0.11502333
167	0xbe2fbc88	-0.17161763
168	0x3e03b88e	0.12863371
169	0x3cedced6	0.029029291
170	0xbd4ee312	-0.05050952
171	0x3d33a58f	0.04385906
172	0xbd3af301	-0.045641903
173	0x3e09672b	0.13418262
174	0x3c0cc99b	0.008592988
175	0x3d1303df	0.035892364
176	0xbc3a8b6d	-0.011385781
177	0xbc9edacb	-0.019391438
178	0xbd341bde	-0.04397189
179	0x3d2683de	0.040653102
180	0x3d1210d0	0.035660565
181	0xbd0e7087	-0.034775283
182	0xbd7731d1	-0.060350243
183	0xbd48ea20	-0.049051404
184	0xbbcd6d7b	-0.0062691546
185	0x3dd6553c	0.10465476
186	0x3e3ede85	0.18639572
187	0xbe241555	-0.16023763
188	0x3e2af7de	0.16696116
189	0xbd19fc40	-0.03759408
190	0x3d5e0b86	0.05421021
191	0xbd13b64f	-0.036062535
192	0xbe218728	-0.15774214
193	0x3e013fcf	0.12621997
194	0xbe28f60b	-0.16500108
195	0x3c1fa92b	0.009744923
196	0x3d9a6b35	0.07539979
197	0xbdca2a55	-0.098713554
198	0x3d9a603e	0.07537888
199	0xbd98f90d	-0.07469378
200	0xbdbd7d42	-0.09252407
201	0x3de5dd90	0.112239
202	0xbd136e0a	-0.035993613
203	0x3e00caba	0.12577334
204	0xbddb3add	-0.10704587
205	0x3cc3e698	0.023913667
206	0x3df1be7e	0.118039116
207	0xbe217d9f	-0.15770577
208	0x3da3ef51	0.0800463
209	0xbb334ecb	-0.0027360197
210	0x3db06652	0.08613266
211	0x3cbcbeb1	0.023040147
212	0x3d158335	0.036502082
213	0x3dda64e2	0.10663773
214	0xbda7f142	-0.08200313
215	0xbe00e35f	-0.12586735
216	0x3d869b1c	0.065725535
217	0xbe20c8bc	-0.15701574
218	0x3da7b411	0.08188642
219	0xbdc034c6	-0.09385066
220	0x3c6d896d	0.014498097
221	0x3c5f0279	0.013611429
222	0xbde5691e	-0.1120169
223	0x3df43904	0.11924937
224	0xbd5013f1	-0.050800268
225	0xbd68372d	-0.056693245
226	0x3dae2d10	0.08504689
227	0xbe29eaf9	-0.16593541
228	0xbdf7957a	-0.12089057
229	0xbdb78977	-0.08961766
230	0x3d089c25	0.033352036
231	0x3c9e3d9c	0.019316487
232	0xbdfbf4da	-0.12302561
233	0xbdd4c918	-0.10389918
234	0x3bbf1666	0.0058315275
235	0x3dd614cd	0.10453186
236	0x3ddff5be	0.109355435
237	0x3db8c1d3	0.09021344
238	0x3d87b10e	0.066255674
239	0x3dc4b16e	0.096041545
240	0x3d33e6a8	0.043921143
241	0x3e505a5f	0.20346974
242	0x3dec4d6c	0.115382046
243	0x3e0687ca	0.13137737
244	0x3de59e2b	0.11211809
245	0xbdbe6974	-0.09297457
246	0x3da307f4	0.07960501
247	0x3ce842a6	0.028352093
248	0xbe02472b	-0.12722461
249	0xbe2f1788	-0.1709882
250	0x3da85fb3	0.08221378
251	0xbd0e8cc1	-0.034802202
252	0x3ddb9624	0.107219964
253	0x3d1f4faa	0.038894333
254	0x3e2476a1	0.16060878
255	0xbd3c0da5	-0.04591145

conv_layer.0.bias f4 [32]
0	0xbca63891	-0.020290645
1	0xbe1e3d62	-0.15453103
2	0xbc8f934b	-0.01752629
3	0xbe2d609a	-0.16931382
4	0xbd75a3ab	-0.05997054
5	0xbd213620	-0.03935826
6	0xbdca42b3	-0.09876003
7	0x3e641ba9	0.22276177
8	0xbd42fe1b	-0.047605615
9	0xbd450491	-0.048100058
10	0xbc035775	-0.008016457
11	0xbd5a9cdc	-0.05337225
12	0xbe497831	-0.19674756
13	0xbd34f8ae	-0.044182472
14	0xbdf05ed9	-0.11736841
15	0x3d2f2f1f	0.042769548
16	0xbb618831	-0.0034413452
17	0xbc0daf15	-0.0086477
18	0xbc98ea17	-0.01866631
19	0xbda80c2e	-0.08205448
20	0xbdf744d6	-0.12073676
21	0xbe613c95	-0.21995766
22	0xbdda7ca7	-0.10668307
23	0xbe252ce1	-0.16130401
24	0xbf010067	-0.5039124
25	0xbec3e448	-0.38260102
26	0xbd429184	-0.047502056
27	0xbe80b4f5	-0.2513806
28	0xbca4f25a	-0.020135093
29	0x3dda0f6e	0.10647474
30	0xbdecc280	-0.115605354
31	0xbdf454e9	-0.11930258

conv_layer.2.weight f4 [32]
0	0x3ed8b9f3	0.42329368
1	0x3ed4802b	0.41504034
2	0x3f0b2527	0.54353565
3	0x3e9b6f61	0.30358413
4	0x3eeeb449	0.46621922
5	0x3dd88d0d	0.10573778
6	0x3efe130d	0.4962391
7	0x3f0fb09a	0.5612885
8	0x3f159b49	0.5844007
9	0x3f0fffd2	0.56249726
10	0x3ea8a53c	0.32938564
11	0x3f2a1d0c	0.6645057
12	0x3f143c02	0.57904065
13	0x3f47e6ad	0.7808636
14	0x3e7fc87d	0.24978824
15	0x3ea89d83	0.32932672
16	0x3edc16c7	0.42986128
17	0x3f2498b7	0.64295524
18	0x3f4e01b7	0.80471367
19	0x3f180807	0.5938725
20	0x3eb0cfd4	0.3453356
21	0x3f08e7e0	0.53478813
22	0x3f19b478	0.60041
23	0x3ec49f6c	0.3840288
24	0x3e164112	0.1467326
25	0x3eb39bec	0.35079896
26	0x3e8ef581	0.2792168
27	0x3ebd9830	0.37030172
28	0x3f84d87e	1.0378568
29	0x3f1df0c7	0.6169552
30	0x3f49e3a5	0.78862983
31	0x3eb6a23e	0.35670656

conv_layer.2.bias f4 [32]
0	0x3cb95f80	0.022628546
1	0x3d19b67c	0.037527546
2	0xbcf47b46	-0.029843938
3	0x3bb76351	0.0055965562
4	0x3c76b3e9	0.015057542
5	0x3d92c0a4	0.071656495
6	0x3cc75861	0.024334135
7	0x3b063991	0.002048109
8	0x3bb4e80c	0.005520826
9	0xbd190baf	-0.037364658
10	0x3cda4250	0.026642948
11	0x3d899397	0.06717604
12	0x3b78600f	0.0037899052
13	0x3ced1fb0	0.028945774
14	0x3c396eec	0.01131795
15	0x3c90ab64	0.01765985
16	0xbc8da100	-0.017288685
17	0xbb3f3c8b	-0.0029180374
18	0xb9e8307d	-0.00044286615
19	0xbcfc23b7	-0.030778749
20	0x3c9b20a7	0.018936468
21	0x3d43cb53	0.047801327
22	0x3d4d4d25	0.0501224
23	0x3cd1c8a1	0.025608363
24	0x3d74721c	0.059679136
25	0xbc530927	-0.0128806
26	0xbd221b29	-0.039576683
27	0x3cf2b9f7	0.02962969
28	0xbd7c5cd1	-0.061611954
29	0x3b9d71d9	0.0048048315
30	0x3ce456eb	0.027873477
31	0x3d3b4d52	0.045728035

conv_layer.2.running_mean f4 [32]
0	0x3d8762aa	0.066106156
1	0x3e1a6d6e	0.15080807
2	0x3d21ffa7	0.03955045
3	0x3bf1ec3d	0.007382898
4	0x3e3c295d	0.18375154
5	0x3dbeb91a	0.09312649
6	0x3cfe1319	0.031014966
7	0x3e5efe05	0.21776588
8	0x3d584487	0.052799728
9	0x3e192981	0.14957239
10	0x3d8d996a	0.06914027
11	0x3d3ca122	0.046052106
12	0x3dd5d0d0	0.104402184
13	0x3e21bf21	0.15795566
14	0x3e05abaf	0.13053773
15	0x3d9b88f1	0.07594479
16	0x3d7918fb	0.06081484
17	0x3d8d0bc1	0.068870075
18	0x3d49f255	0.04930337
19	0x3e0613b5	0.13093455
20	0x3c960be3	0.018316215
21	0x3dda4167	0.10657006
22	0x3d10309e	0.035202615
23	0x3d854bdf	0.06508612
24	0x3d78faf1	0.06078619
25	0x3cacdd42	0.021101598
26	0x3d699c6f	0.057033952
27	0x3dc76c89	0.09737498
28	0x3d5d6915	0.054055292
29	0x3df40087	0.11914163
30	0x3d15c2ed	0.03656285
31	0x3e5059e2	0.20346788

conv_layer.2.running_var f4 [32]
0	0x3c3e9cef	0.011634096
1	0x3d8eaed1	0.06966937
2	0x3bc0ee98	0.0058878176
3	0x3b03a684	0.0020088265
4	0x3ddfc6e8	0.1092661
5	0x3d6b9502	0.05751515
6	0x3be970eb	0.0071240566
7	0x3dd6ab94	0.10481945
8	0x3c5b3759	0.013379895
9	0x3dafa96e	0.08577238
10	0x3c5f4c12	0.013628976
11	0x3c59c2f7	0.013291112
12	0x3d6bf2ba	0.05760453
13	0x3db7b151	0.08969367
14	0x3d174ab1	0.036936466
15	0x3c0749ad	0.008257312
16	0x3c5c2a78	0.01343786
17	0x3c989a9d	0.018628413
18	0x3c24510e	0.010029091
19	0x3dad43ad	0.08460174
20	0x3b7ec24e	0.003887314
21	0x3d2953ff	0.04133987
22	0x3c119357	0.008885226
23	0x3cd9b04b	0.02657332
24	0x3cd79ec0	0.026320815
25	0x3c1beb4d	0.009516549
26	0x3c63db9e	0.013907341
27	0x3d83578a	0.06413181
28	0x3c672924	0.01410893
29	0x3c9baeae	0.019004192
30	0x3c45b7a1	0.012067706
31	0x3e102d31	0.14079739

conv_layer.4.weight f4 [64, 32, 5, 5]
0	0x3d6443b1	0.055728618
1	0xbd12d98b	-0.035851996
2	0xbcfd56f1	-0.030925246
3	0xbd37846e	-0.04480403
4	0x3cfce52e	0.030871
5	0x3cf1759d	0.029475028
6	0xbcfae92f	-0.030628769
7	0xbcb4d19a	-0.022072602
8	0x3c90cc22	0.017675463
9	0x3ca2d900	0.019878864
10	0xbcc54327	-0.024079872
11	0x3c5ad0b2	0.013355421
12	0x3d2004fb	0.03906725
13	0x3d1d04b5	0.038334567
14	0x3db24d64	0.08706167
15	0x3d39d737	0.04537126
16	0x3dec36e5	0.11533908
17	0x3d6299a7	0.055322316
18	0x3de4ba90	0.111683965
19	0x3ddf19b6	0.10893576
20	0x3dd2f828	0.10301238
21	0x3b91f943	0.004454763
22	0xbca0e032	-0.019638155
23	0x3d706723	0.05869211
24	0x3e06e9a1	0.1317506
25	0xbd8799f3	-0.0662116
26	0xbd1db85b	-0.038505893
27	0xbd2f7367	-0.042834666
28	0xbbadbcd4	-0.005302051
29	0x3d129aaf	0.03579205
30	0xbd90f779	-0.07078452
31	0xbd5a9c0f	-0.053371485
32	0x3d3d83f1	0.046268407
33	0xbbbf72df	-0.005842551
34	0xbd8d68a1	-0.06904722
35	0xbd3e14cb	-0.04640655
36	0xbc35906f	-0.011081799
37	0x3cfff393	0.031244075
38	0xbc396498	-0.011315487
39	0xbd837ffa	-0.06420894
40	0xbe1bc4f7	-0.15211855
41	0xbdd22e12	-0.102626935
42	0xbc01cdfa	-0.007922644
43	0x3c3951f2	0.011311041
44	0x3aa29ed1	0.001240695
45	0xbdf615ef	-0.12015902
46	0xbe2bf6a0	-0.16793299
47	0xbdb9a244	-0.09064153
48	0xbdaddd3b	-0.08489462
49	0x3d8909e7	0.06691342
50	0x3de19737	0.1101517
51	0x3ce606bd	0.028079385
52	0xb9ff228b	-0.00048663127
53	0xbd82ff94	-0.06396404
54	0xbc805cc4	-0.015669234
55	0x3cecd932	0.02891216
56	0x3db30c66	0.08742599
57	0x3d582d4a	0.052777566
58	0xbc75fefe	-0.015014408
59	0x3c9f7e80	0.0194695
60	0x3d1094d8	0.0352982
61	0xbbd8ac96	-0.0066123707
62	0x3d3d9109	0.046280894
63	0x3b9cd066	0.004785585
64	0x3d866b86	0.06563477
65	0x3d815b01	0.06316186
66	0xbc9ebeb7	-0.01937805
67	0x3d9e4bef	0.07729327
68	0x3d1e5e71	0.038664285
69	0x3e00ac1a	0.12565652
70	0xbb9705c4	-0.0046088416
71	0x3c9b5a1b	0.018963864
72	0xbc8e071b	-0.017337373
73	0x3b9165fb	0.004437206
74	0x3dab5cd1	0.08367313
75	0x3db34226	0.08752851
76	0x3c0d81f0	0.008636937
77	0x3e0f7ca2	0.14012387
78	0x3d4311eb	0.04762451
79	0x3cbba306	0.022904884
80	0x3d441cd7	0.047879066
81	0x3dfd35b6	0.1236376
82	0x3d92d54e	0.07169591
83	0x3d99b361	0.07504917
84	0x3c066b32	0.008204268
85	0x3c866d8d	0.01640966
86	0x3dd6d75b	0.104902945
87	0x3e03fbc7	0.12889014
88	0x3e230bda	0.1592249
89	0x3dcc0bc1	0.099631794
90	0xbcf68810	-0.030094177
91	0x3c9b4d07	0.018957628
92	0x3df7493f	0.120745175
93	0x3e004991	0.12528063
94	0x3df5ac60	0.119957685
95	0xbe36b26c	-0.178415
96	0xbdae3cc0	-0.08507681
97	0xbaf5dd02	-0.0018757882
98	0xbd384335	-0.04498597
99	0xbd5aef94	-0.053451136
100	0x3dce57c3	0.10075333
101	0xbd82733f	-0.06369638
102	0xbd4c5fe0	-0.04989612
103	0xbcc03272	-0.023461554
104	0x3dacaa84	0.08430961
105	0x3e211111	0.15729167
106	0x3d23cc40	0.03998971
107	0xbdd29046	-0.10281424
108	0xbd740266	-0.0595726
109	0x3de07717	0.109602146
110	0x3d8d5fa4	0.069030076
111	0x3dac46cc	0.08411941
112	0x3d895af1	0.06706799
113	0xbd70f44d	-0.058826733
114	0xbbecfc8a	-0.0072322534
115	0xbdee24da	-0.11628123
116	0x3d49c680	0.04926157
117	0x3df62f4f	0.12020742
118	0x3c40d016	0.011768362
119	0xbe00a9b9	-0.12564744
120	0xbe616786	-0.22012147
121	0xbcea53a0	-0.028604329
122	0x3e0d031a	0.13770714
123	0x3e30c539	0.17262734
124	0x3d882bfe	0.06649016
125	0x3a2cd85c	0.00065935194
126	0x3d8b3bf9	0.06798548
127	0x3d89ed3d	0.06734703
128	0x3d37b177	0.044846978
129	0xbd3361da	-0.04379449
130	0xbcbd07e6	-0.023075055
131	0x3d147ca9	0.036251698
132	0x3d0c9517	0.03432187
133	0x3c9da303	0.01924277
134	0xbcc44427	-0.023958279
135	0xbc99a7f3	-0.018756842
136	0x3ab5bf25	0.001386617
137	0x3d97af81	0.074065216
138	0x3d554a9b	0.052073102
139	0xbd566c2d	-0.05234926
140	0xbb6a2b40	-0.0035731345
141	0xbc84b364	-0.016198821
142	0x3c9639f2	0.018338177
143	0x3d085e60	0.033293128
144	0xbd52e7e5	-0.051490683
145	0xbd873e64	-0.06603697
146	0xbdd63e16	-0.10461061
147	0xbdc7aa7c	-0.09749314
148	0xbd6639a6	-0.05620732
149	0xbc6704b2	-0.014100241
150	0xbd88d88c	-0.06681928
151	0xbda5fae9	-0.08104498
152	0xbda928fa	-0.08259769
153	0x3cc91766	0.02454729
154	0xbcd5adee	-0.026083913
155	0x3e264687	0.16237842
156	0x3d4e4b89	0.050365005
157	0xbdf50ebd	-0.11965702
158	0xbdbe965a	-0.09306021
159	0xbe0b5bb8	-0.13609207
160	0x3e087754	0.1332677
161	0x3e48b918	0.19601858
162	0xbcb7ed84	-0.022452123
163	0xbe783c8c	-0.24241847
164	0xbe3e58f3	-0.18588619
165	0x3e1522b9	0.14564027
166	0x3dee8643	0.11646702
167	0xbbbd0b00	-0.0057691336
168	0xbe18d85f	-0.14926289
169	0xbe58b805	-0.21163948
170	0x3e1a69c9	0.15079416
171	0x3e5ff9b4	0.21872598
172	0x3de81125	0.11331395
173	0x3d14b8d5	0.036309082
174	0x3d8fa65a	0.07014151
175	0x3d353e89	0.04424909
176	0x3d25d47b	0.04048584
177	0x3dba1099	0.09085197
178	0x3b545526	0.0032399385
179	0xbd156606	-0.03647425
180	0x3c32705b	0.010891045
181	0x3d023fa9	0.031798992
182	0x3d67bf1d	0.056578744
183	0x3d166898	0.036720842
184	0xbca318ac	-0.019909225
185	0xbaac30c5	-0.0013137093
186	0x3c579461	0.013157935
187	0x3d114857	0.03546938
188	0xbcfc20ef	-0.030777423
189	0xbd438bff	-0.047740933
190	0x3d93ab99	0.07210464
191	0x3c4ffab2	0.012694048
192	0x3c8423a6	0.01613028
193	0x3d3d5352	0.04622204
194	0xbc0537ed	-0.0081310095
195	0x3a1adac1	0.00059072307
196	0x3d2fe410	0.042942107
197	0xbc277226	-0.010220086
198	0xbcf6e86d	-0.030140126
199	0xbc520205	-0.012817864
200	0xbdbdbb7b	-0.09264275
201	0x3cf5122d	0.029915893
202	0xbd824029	-0.06359894
203	0xbdbb0357	-0.091314964
204	0xbe38894c	-0.18021125
205	0x3cc12ec0	0.023581862
206	0xbbe8d9bc	-0.007106034
207	0xbd98705d	-0.074433066
208	0xbd13cd49	-0.036084447
209	0xbd2701f2	-0.04077334
210	0xbd0d2437	-0.034458365
211	0xbd81a4e5	-0.06330279
212	0x3d7198a2	0.058983453
213	0x3c023f5e	0.007949678
214	0x3c59a89e	0.01328483
215	0xbde5c817	-0.11219805
216	0x3b11da1a	0.0022255243
217	0x3d9a0bf4	0.07521811
218	0xbb60a117	-0.0034275705
219	0xbdbc79c0	-0.092029095
220	0xbd91453f	-0.07093286
221	0x3d8d74fd	0.06907079
222	0x3d4eefef	0.050521787
223	0x3c524d91	0.012835876
224	0xbdd963b2	-0.106147185
225	0xbdbc2618	-0.09186953
226	0xbd1bb7f9	-0.038017247
227	0x3d974d85	0.073878326
228	0x3c1db5dc	0.009625878
229	0x3d4249fe	0.047433846
230	0xbded1c5c	-0.11577675
231	0xbdb6b057	-0.08920353
232	0x3d6181e2	0.055055507
233	0x3e25ad8a	0.16179481
234	0x3dda5eac	0.106625885
235	0xbc9bedba	-0.019034255
236	0xbd3ba07c	-0.045807347
237	0x3d9ff642	0.07810642
238	0x3d2e613b	0.042573195
239	0x3db89b70	0.09014022
240	0x3e37a987	0.17935763
241	0xbd48ac2c	-0.04899232
242	0x3d1cf36c	0.038318083
243	0xbc572cf0	-0.0131332725
244	0x3c0cd058	0.008594595
245	0x3e8fa999	0.2805908
246	0x3dd61dd4	0.10454908
247	0xbd2284b6	-0.039677344
248	0xbe1c19c4	-0.15244204
249	0xbe1f39a3	-0.1554933
250	0x3c5f4fd0	0.013629869
251	0x3dd47c91	0.10375322
252	0x3da7ee2b	0.08199724
253	0x3d514627	0.051092293
254	0x3d544d97	0.051831808
255	0xbe170f1e	-0.1475186

conv_layer.4.bias f4 [64]
0	0x3c63ba04	0.01389933
1	0x3b910cd3	0.0044265776
2	0x3ae7b500	0.0017677844
3	0xbc0606ab	-0.008180301
4	0x3c634fa9	0.013873973
5	0xbae07172	-0.0017123653
6	0xbc14e260	-0.009087175
7	0x3c584ab7	0.013201407
8	0xb9e12144	-0.0004294013
9	0x3ce95ade	0.028485712
10	0xbc5f6627	-0.013635195
11	0x3d0c57c5	0.03426339
12	0xbcf19a76	-0.029492598
13	0x3d02290e	0.031777434
14	0xbca91756	-0.02064101
15	0x3cd5b6e2	0.026088182
16	0x3beb5137	0.0071813124
17	0xbd06ea40	-0.032938242
18	0x3ca03f73	0.019561505
19	0x3c1cb2dd	0.009564129
20	0xbb3f6ed0	-0.0029210337
21	0xbb834a6d	-0.004006675
22	0xbd1fda1c	-0.039026365
23	0x3b5983f9	0.0033190234
24	0xbca032ab	-0.01955541
25	0xbcce5589	-0.02518727
26	0xbc3c5000	-0.011493683
27	0x3c007879	0.007841223
28	0x3cb07c3e	0.021543618
29	0xbc3f91ed	-0.011692506
30	0xbcedc7b4	-0.02902589
31	0xbcd6562e	-0.02616414
32	0x3ca03d98	0.01956062
33	0x3d1524b6	0.036411963
34	0xbc231f48	-0.0099561885
35	0xbc44a969	-0.012003281
36	0xbca421f1	-0.020035716
37	0x3cdb8516	0.026796859
38	0x3c78068d	0.015138281
39	0xbc944da1	-0.018103423
40	0x3c8fbe20	0.017546713
41	0xbc4873b8	-0.012234621
42	0x3c96c140	0.018402696
43	0x3cc8c351	0.024507197
44	0xbb055fa7	-0.0020351203
45	0xbcd810d7	-0.026375217
46	0x3b17d796	0.002316927
47	0xbd14ca63	-0.036325824
48	0x3caf2a06	0.021382343
49	0xbb72e5c7	-0.0037063228
50	0xba8088d5	-0.0009806404
51	0xbccae697	-0.024768157
52	0x3c40586b	0.0117398305
53	0x3c610b90	0.013735667
54	0xbca25750	-0.019817024
55	0xbbdb5089	-0.00669295
56	0x3ca03532	0.019556616
57	0xbcd5ee54	-0.02611462
58	0xbab08235	-0.0013466539
59	0x3cfa2cae	0.030538883
60	0xb8ee2682	-0.00011355897
61	0x3c9a7edf	0.018859325
62	0xbcf8e490	-0.030382425
63	0x3ce7a644	0.028277524

conv_layer.5.weight f4 [64]
0	0x3f130580	0.5743027
1	0x3eb7f9f5	0.3593289
2	0x3eaa7aed	0.3329691
3	0x3ebb91d7	0.36634704
4	0x3f07c685	0.5303729
5	0x3f610886	0.8790363
6	0x3f77df0f	0.96824735
7	0x3f6fb1c4	0.93630624
8	0x3ed85ba0	0.42257404
9	0x3f32c163	0.69826335
10	0x3f562ddd	0.8366373
11	0x3f0dcfc3	0.55395144
12	0x3f3560cc	0.70850825
13	0x3f5fd025	0.8742698
14	0x3f3fe9dc	0.74966216
15	0x3f3b938c	0.73272014
16	0x3f2519e0	0.6449261
17	0x3f7f651b	0.9976365
18	0x3ef5d3cf	0.4801316
19	0x3f339d24	0.7016165
20	0x3f4ad414	0.79229856
21	0x3ef5a083	0.47974023
22	0x3f6e6a50	0.9313097
23	0x3f21a612	0.6314403
24	0x3f1e63d1	0.6187106
25	0x3f1f7504	0.62287927
26	0x3f831130	1.023962
27	0x3ed1fa17	0.41011116
28	0x3eddc989	0.43317822
29	0x3f666935	0.90004283
30	0x3f249ab8	0.6429858
31	0x3f2f0a98	0.6837554
32	0x3ec47d08	0.3837664
33	0x3f80c2ad	1.005941
34	0x3f45777a	0.7713543
35	0x3f4b8040	0.7949257
36	0x3ead9ab7	0.339071
37	0x3f2e021d	0.67971975
38	0x3f3e9408	0.7444463
39	0x3f34143a	0.70343363
40	0x3f10093e	0.562641
41	0x3f8886b3	1.0666107
42	0x3ed861ee	0.42262214
43	0x3f103ba1	0.56340986
44	0x3f0b238d	0.5435112
45	0x3f8291e0	1.0200768
46	0x3f0b8bb8	0.5451007
47	0x3e98e66f	0.29863307
48	0x3f75f69b	0.96079415
49	0x3ed7b1b4	0.42127764
50	0x3f2186c3	0.63096255
51	0x3f058a78	0.5216441
52	0x3f057fd0	0.5214815
53	0x3f6511dc	0.89480376
54	0x3f4ceccf	0.8004884
55	0x3e8d2541	0.27567485
56	0x3f5b6a48	0.8570905
57	0x3f6d49b0	0.92690563
58	0x3ef1bf16	0.472161
59	0x3ec43567	0.38321993
60	0x3f00c9f7	0.50308174
61	0x3f265a59	0.6498161
62	0x3f6f3dec	0.9345386
63	0x3f6061ae	0.8764905

conv_layer.5.bias f4 [64]
0	0xbe3214dd	-0.17390771
1	0xbe045352	-0.12922409
2	0xbdcb338a	-0.0992194
3	0xbde6a7bc	-0.112624615
4	0xbdd0ab5f	-0.101889364
5	0xbe27fe41	-0.16405584
6	0xbe96114a	-0.29310066
7	0xbea94f1d	-0.3306817
8	0xbe1c93d5	-0.15290768
9	0xbd9b6105	-0.075868644
10	0xbdf30cf0	-0.11867702
11	0xbe3b1301	-0.18268968
12	0xbdea4188	-0.1143828
13	0xbe1c8d50	-0.15288281
14	0xbe5ac160	-0.21362829
15	0xbe003d50	-0.12523389
16	0xbe333ac5	-0.17502888
17	0xbe5e6ebb	-0.21721928
18	0xbe202891	-0.15640475
19	0xbe49f83c	-0.197236
20	0xbe49edc0	-0.197196
21	0xbe09bdd7	-0.13451324
22	0xbe665fe4	-0.22497517
23	0xbe548183	-0.2075253
24	0xbe19db8e	-0.1502516
25	0xbe50a9b4	-0.20377237
26	0xbe4d4ca7	-0.20048772
27	0xbdd1d933	-0.102465056
28	0xbded5f80	-0.11590481
29	0xbe721ecf	-0.23644565
30	0xbe119127	-0.14215527
31	0xbe62119f	-0.22077034
32	0xbe075271	-0.13215043
33	0xbe546c1e	-0.20744368
34	0xbe88a437	-0.26687786
35	0xbe8e82d0	-0.27834177
36	0xbd574c7d	-0.05256318
37	0xbe141786	-0.14462098
38	0xbe59f54c	-0.2128498
39	0xbdd6577a	-0.104659036
40	0xbe6ffe2c	-0.23436803
41	0xbe522fb7	-0.20526014
42	0xbe22d757	-0.15902458
43	0xbe469997	-0.19394527
44	0xbe4dbe94	-0.20092231
45	0xbe921486	-0.28531283
46	0xbe134618	-0.14382207
47	0xbe0ab8cc	-0.13547057
48	0xbe70d688	-0.23519337
49	0xbe0d2795	-0.1378463
50	0xbe181291	-0.14850833
51	0xbe51b075	-0.2047747
52	0xbe5aae6e	-0.21355602
53	0xbe831853	-0.25604495
54	0xbe620f2e	-0.22076103
55	0xbd9e77ba	-0.0773768
56	0xbe8c24ae	-0.27371734
57	0xbe793820	-0.24337816
58	0xbe1f333b	-0.15546887
59	0xbe16876c	-0.14700097
60	0xbe01e4a3	-0.12684874
61	0xbe76100e	-0.24029562
62	0xbe3cabe5	-0.18424948
63	0xbe341212	-0.17585018

conv_layer.5.running_mean f4 [64]
0	0x3f6ea82b	0.93225354
1	0xbeb4bd6d	-0.3530077
2	0xbdb04e7d	-0.086087205
3	0x3ef412b6	0.47670525
4	0xbfe6b99b	-1.8025392
5	0x3f1a264f	0.60214704
6	0xbf1a6bce	-0.60320747
7	0xbff8defd	-1.9443051
8	0xbea3ea83	-0.32014856
9	0x3e47e3e1	0.19520523
10	0xbe5eb67e	-0.21749303
11	0xc0251892	-2.5796247
12	0xbf01e120	-0.5073414
13	0xbf433fd5	-0.76269275
14	0xbe5fb0e1	-0.21844818
15	0xbd44ef91	-0.04808003
16	0xbe85da86	-0.26143283
17	0xbddef291	-0.108861096
18	0x3d25b34b	0.04045419
19	0xbf023aeb	-0.5087115
20	0xbe9be5e7	-0.3044884
21	0x3e909b51	0.28243497
22	0xbd7706fc	-0.060309395
23	0xbf6e4109	-0.93067986
24	0xbf37b56f	-0.7176122
25	0xbf08c908	-0.5343175
26	0x3e024d1c	0.12724727
27	0xc017bbb7	-2.3708322
28	0xbf39ad28	-0.7252984
29	0xbf286a40	-0.65787125
30	0x3decdc19	0.11565418
31	0xbfae32fc	-1.3609309
32	0x3e33fcd4	0.17576915
33	0xbeea7ca1	-0.4579821
34	0xbef16a7b	-0.4715155
35	0xc009a70b	-2.1508205
36	0xbec2dd4b	-0.38059458
37	0xbeba23cb	-0.36355433
38	0xbf185556	-0.5950521
39	0x3ed5d48e	0.4176373
40	0xbfad4a27	-1.3538254
41	0xbf2e79e9	-0.6815477
42	0xbf759fc4	-0.9594691
43	0xbf4bbc6e	-0.79584396
44	0x3edf0bba	0.43563634
45	0xbf7b0f84	-0.9807055
46	0xbd6ab5f1	-0.05730242
47	0xbe356f56	-0.17718253
48	0x3eae4a0e	0.34040874
49	0xbf93eb86	-1.1556251
50	0xbf31e3f8	-0.6948848
51	0xbed6126d	-0.41810933
52	0xbe81c8f7	-0.25348637
53	0xbf924b7e	-1.1429288
54	0x3f005536	0.5013002
55	0x3fe8cc7c	1.8187404
56	0xbeef6a68	-0.4676087
57	0xbfc21f9b	-1.5165895
58	0xbf2e4e71	-0.6808844
59	0x3da05b68	0.07829934
60	0xbecabd6f	-0.3959765
61	0xbf741472	-0.953437
62	0x3ec88be0	0.39169216
63	0x3f1ddcb5	0.616649

conv_layer.5.running_var f4 [64]
0	0x40afad2a	5.489888
1	0x40c32b74	6.0990543
2	0x40bf7ac2	5.983735
3	0x40dd732c	6.920309
4	0x40b685c8	5.7038307
5	0x40c60cf3	6.1890807
6	0x40b0c03a	5.523465
7	0x41030707	8.189216
8	0x4095a700	4.6766357
9	0x40b29238	5.580349
10	0x40990a80	4.7825317
11	0x410c9cbf	8.788268
12	0x40903749	4.5067487
13	0x40d95daa	6.7926836
14	0x40bbd0fa	5.86926
15	0x40dd5645	6.916781
16	0x40ad3594	5.4127903
17	0x40aa7f08	5.3280067
18	0x40c138cb	6.0381827
19	0x40e72821	7.2236485
20	0x40828ba9	4.0795484
21	0x40bea745	5.9579186
22	0x4078e444	3.8889322
23	0x40f8967f	7.768371
24	0x40ccf2ff	6.4046626
25	0x410a3009	8.636727
26	0x4084e147	4.1524997
27	0x412a43c5	10.641545
28	0x40cae527	6.3404727
29	0x410427f3	8.259753
30	0x41069a60	8.412689
31	0x411d2a04	9.822758
32	0x408bc28e	4.3674994
33	0x40d2c12f	6.586082
34	0x409ab560	4.8346405
35	0x4130c62c	11.048382
36	0x40df82f3	6.984735
37	0x40aac636	5.3366957
38	0x4090cea7	4.525226
39	0x40d457e4	6.635729
40	0x412faa72	10.979113
41	0x408fa3fc	4.4887676
42	0x4087e8d5	4.247172
43	0x40853b06	4.163455
44	0x40fd3a81	7.9133916
45	0x40a1722c	5.045187
46	0x40c0e3fe	6.027831
47	0x40d6b0ac	6.7090664
48	0x40f0d48c	7.5259457
49	0x40ebf71e	7.3739157
50	0x40bb396d	5.85076
51	0x40d7052e	6.7193823
52	0x40cf4913	6.47767
53	0x40c34f1d	6.1034074
54	0x409da916	4.9268904
55	0x4118db02	9.553469
56	0x40ebbf96	7.367137
57	0x4114fdc0	9.311951
58	0x40ebe4da	7.371686
59	0x40cd6d4d	6.4195924
60	0x40ac5b26	5.3861265
61	0x411a60c1	9.648622
62	0x40aa0153	5.3126616
63	0x409c5a52	4.8860254

fc_layer.0.weight f4 [100, 1600]
0	0x3c89bfda	0.016815115
1	0xbcf0739e	-0.029352006
2	0xbce95a81	-0.028485538
3	0x3c5bcdd3	0.013415772
4	0x3c14dca7	0.009085811
5	0xbc18ff30	-0.009338185
6	0xbca41932	-0.020031545
7	0x3c5bace6	0.013407921
8	0x3c1c4808	0.009538658
9	0xbc1f68ef	-0.009729608
10	0xbbbfdc7c	-0.005855141
11	0x3c947efb	0.018126955
12	0xbab57a07	-0.0013845571
13	0xbcd0f7ea	-0.02550884
14	0x3c1d75de	0.009610621
15	0x3c0c9789	0.008581051
16	0xbc09fce1	-0.008422107
17	0xbc9653f0	-0.018350571
18	0xbcbe8f9b	-0.023261836
19	0x3c81def4	0.015853383
20	0x3c17e6b3	0.009271312
21	0xbc3fc727	-0.011705196
22	0x3bff5a8f	0.007792778
23	0x3c052420	0.008126289
24	0xbcd10c6d	-0.02551862
25	0x3c6621eb	0.014046173
26	0x3c30c137	0.0107882535
27	0x3c43fff7	0.011962882
28	0xbbb50117	-0.0055238116
29	0xbc90d555	-0.01767985
30	0x3c9aa142	0.018875722
31	0x38fa6a31	0.00011940709
32	0xbcf42b01	-0.029805662
33	0xba210167	-0.00061418716
34	0xbcda06b5	-0.026614526
35	0x3c505c20	0.012717277
36	0x3b61fa62	0.0034481515
37	0x3c4adb8f	0.012381448
38	0xbb996574	-0.0046812836
39	0xbc4f5107	-0.012653596
40	0xbcfa908f	-0.030586509
41	0xbcbb6579	-0.022875534
42	0xbbab6e0c	-0.0052316245
43	0xbc9b76e0	-0.018977582
44	0x3b98f585	0.00466794
45	0x3c3fb724	0.011701379
46	0x3be3c177	0.006950553
47	0x3c679c17	0.014136336
48	0xbc892c9f	-0.01674491
49	0xbb062f8b	-0.0020475115
50	0xbc473856	-0.012159428
51	0xbc8c6345	-0.01713718
52	0xba2157f2	-0.00061547675
53	0xbce17bec	-0.02752491
54	0x3c03fc5b	0.008055772
55	0xbcc52936	-0.024067502
56	0xbab736ab	-0.0013978084
57	0xbc09590c	-0.008383047
58	0xbbe87635	-0.0070941695
59	0x3c811747	0.01575817
60	0xbb5232ee	-0.0032073813
61	0x3c5a1581	0.013310791
62	0xbcebfd05	-0.028807173
63	0xbca8cbc6	-0.02060498
64	0xbccdf0a2	-0.025139157
65	0xbcdbdb71	-0.026838036
66	0xbc7e9241	-0.015537799
67	0x3a894b76	0.001047476
68	0x3c99c3e3	0.018770164
69	0xba3962b4	-0.0007071898
70	0xbc267df0	-0.010161862
71	0x3c4f534e	0.012654139
72	0x3c90e1e8	0.017685845
73	0x3c911254	0.017708935
74	0xbc91b52f	-0.01778659
75	0x3c8a8a5c	0.016911678
76	0x3bd56957	0.0065128016
77	0xbc1dd980	-0.009634376
78	0x3c51cdd3	0.01280542
79	0x3c4dfb92	0.012572186
80	0x3b36ac47	0.0027873681
81	0xbcc079ac	-0.023495518
82	0xbc115160	-0.008869499
83	0x3c1a6bc9	0.009425112
84	0x3c047a07	0.008085734
85	0xbad7174b	-0.001641014
86	0xbc86c4f1	-0.01645133
87	0x3c8a27ac	0.01686462
88	0xbcd2aa1b	-0.025715878
89	0x3ba24b55	0.004952828
90	0xbc37fffa	-0.011230463
91	0xbbac8379	-0.005264696
92	0xbc916dd2	-0.017752562
93	0xbc432a5e	-0.011911957
94	0xbbf57d14	-0.007491717
95	0xbb9193a3	-0.0044426485
96	0xbc4bc893	-0.012437957
97	0x3a259447	0.00063163455
98	0x3c4b5df5	0.012412538
99	0xbc7e81a1	-0.015533836
100	0x3af46800	0.0018646717
101	0xbcefec0b	-0.029287359
102	0xbc973dd0	-0.018462092
103	0xbcef3772	-0.029201243
104	0xbcfba926	-0.030720305
105	0x3b7a8a7c	0.0038229516
106	0x3c90829f	0.01764041
107	0x3c869a4c	0.016430996
108	0xbbc570ec	-0.006025424
109	0xbc0d087c	-0.00860798
110	0xbc9640d0	-0.018341452
111	0xbcae1fbf	-0.021255372
112	0xbc7f0ecf	-0.0155674955
113	0xbc06dc0c	-0.008231174
114	0xbc9c0560	-0.019045532
115	0xbc212a84	-0.009836797
116	0x3c9b47d3	0.018955147
117	0x3c2d3e0e	0.010573877
118	0xbc0ec22c	-0.008713286
119	0xbc9f8c12	-0.01947597
120	0x3bfe9d19	0.0077701923
121	0x3b8ccb3e	0.0042966893
122	0xbcb3cc2a	-0.021947939
123	0xbbd44ab2	-0.006478631
124	0xbce220a1	-0.02760345
125	0x3b1c4e0f	0.0023850237
126	0x3bafe7ce	0.0053682094
127	0xbcaac164	-0.020844169
128	0x3bf566bd	0.007489054
129	0x3c70e69f	0.014703422
130	0x3c9b236b	0.018937787
131	0xbc6c3aad	-0.014418286
132	0x3c94e9fa	0.018177975
133	0x3ae3905c	0.0017361748
134	0x3c49c140	0.012314141
135	0x3c37eb8f	0.011225595
136	0x3c3cb289	0.0115171755
137	0xbc9388b7	-0.018009527
138	0xbbc51ecb	-0.0060156337
139	0xbba2fecc	-0.004974222
140	0x3c927045	0.0178758
141	0xbc526d1a	-0.012843395
142	0xbc969e5b	-0.018386057
143	0x3c199def	0.009376033
144	0xbcda8ba4	-0.026677914
145	0xbced2186	-0.02894665
146	0x3c1c71f5	0.009548654
147	0x3b847181	0.004041851
148	0xbc8afc5f	-0.016966043
149	0xbcb4d63a	-0.022074807
150	0xbc1ba183	-0.009498957
151	0x3c3667be	0.0111331325
152	0x3ce98fb3	0.028510904
153	0x3c77d7d4	0.015127141
154	0xbc0da32c	-0.00864486
155	0xbce59031	-0.028022857
156	0x3c4951b7	0.012287549
157	0x3c71372f	0.014722629
158	0xbc515589	-0.012776741
159	0xbc9e4437	-0.019319637
160	0x3b490011	0.0030670206
161	0xbb687240	-0.003546849
162	0xbca5733b	-0.020196548
163	0xbcf09edc	-0.029372625
164	0xbb8637f6	-0.0040960265
165	0xbc8821cf	-0.016617684
166	0x3c295807	0.010335929
167	0xbb4fe67a	-0.0031723068
168	0xbba69d11	-0.0050846417
169	0x3bb9acc0	0.0056663454
170	0x3bbda917	0.0057879793
171	0x3cae3bbe	0.021268722
172	0xbceb4cef	-0.028723208
173	0xbcda07fb	-0.026615134
174	0x3c1adf36	0.009452632
175	0xbc619c77	-0.013770214
176	0xbcbab8e9	-0.02279325
177	0x3bb1651e	0.0054136654
178	0x3ba8c12d	0.0051499815
179	0xbbd6df46	-0.006557378
180	0x3bbfe7ee	0.0058565056
181	0xbc86a0c9	-0.01643409
182	0x3c270e26	0.010196244
183	0x3c8c8ec7	0.017157925
184	0xbcb33504	-0.021875866
185	0xbcdb4913	-0.026768243
186	0x3c2fbeb7	0.010726622
187	0xbcadf6cc	-0.021235846
188	0xbbbea8ac	-0.005818447
189	0xbc2b4a14	-0.010454673
190	0x3c1d9157	0.009617171
191	0x3cdd7c20	0.027036726
192	0xbcd56f45	-0.026054034
193	0xbc5dea5f	-0.013544648
194	0xbc65ff0f	-0.0140378615
195	0xbcb7ad73	-0.022421574
196	0xbb682190	-0.0035420395
197	0xbcce7ef7	-0.025207026
198	0xbb2f43d8	-0.002674332
199	0x3c6ac522	0.014329227
200	0xbbe4eeb5	-0.006986464
201	0xbcf936a0	-0.030421555
202	0xbcc97e71	-0.024596425
203	0xbb40bc64	-0.0029409165
204	0xbc7d69dd	-0.015467134
205	0xbccc35cd	-0.024927998
206	0x3c7001d6	0.014648875
207	0x3b9feb9b	0.0048803813
208	0xbc098e1f	-0.008395701
209	0x3b4e6eea	0.0031499215
210	0xbccf7699	-0.025325106
211	0xbcef1527	-0.02918489
212	0xbca09845	-0.019603858
213	0x3c55ecc1	0.013056935
214	0xbcdbcfdf	-0.02683252
215	0xbc1f46ef	-0.009721502
216	0xbca04ae0	-0.019566953
217	0x3b264ceb	0.0025375437
218	0x3b358556	0.0027697883
219	0x3b51546f	0.0031941195
220	0x3c54bfab	0.01298515
221	0xbce8de37	-0.028426273
222	0x3c45ba0f	0.012068286
223	0xbc8629b5	-0.01637731
224	0x3b84c84c	0.0040521976
225	0xbbfdd558	-0.00774638
226	0xbcb996bf	-0.02265489
227	0x3c3fa1e6	0.011696314
228	0xbc72be29	-0.0148158455
229	0xbcecc40a	-0.028902072
230	0x3c0c2793	0.008554357
231	0xbc038158	-0.008026443
232	0x3c40b7f4	0.011762608
233	0xbc65c566	-0.014024114
234	0xbc9d92d6	-0.019235056
235	0xbb6c5850	-0.003606338
236	0xbcf9e0e6	-0.030502748
237	0xbc90461b	-0.017611554
238	0x3a337d7c	0.0006847007
239	0xbcde28a1	-0.027118983
240	0xbc83f3ec	-0.016107522
241	0xbc30b2b2	-0.010784792
242	0xbc88beab	-0.01669248
243	0xbcaf2b83	-0.021383053
244	0x3c2516cd	0.010076237
245	0x3c8e9e05	0.017409334
246	0xbc971be1	-0.01844591
247	0xbca2e84c	-0.019886158
248	0x3bc9fbae	0.0061640358
249	0xbba722dd	-0.0051005916
250	0xbc0fd87c	-0.008779641
251	0xbb9e5b2d	-0.0048326463
252	0xbc9ab279	-0.01888393
253	0x3c6c35cb	0.014417122
254	0x3c815275	0.015786389
255	0x3c2f6d96	0.01070728

fc_layer.0.bias f4 [100]
0	0xbb8e460a	-0.0043418454
1	0x3cdf585f	0.027263818
2	0x3c437399	0.011929416
3	0x3c959868	0.01826115
4	0x3b07cdbb	0.002072199
5	0x3b6e8bff	0.0036399362
6	0x3aa4eed2	0.0012583381
7	0x3d803b9e	0.06261371
8	0xbd0e5d63	-0.03475703
9	0x3da68a31	0.08131827
10	0x3c4c10b1	0.012455151
11	0x3c663b51	0.014052228
12	0xbc04c70c	-0.008104097
13	0x3d2a077b	0.04151104
14	0x3dd321e0	0.103091955
15	0xbca483d4	-0.020082392
16	0xba4aea21	-0.00077405764
17	0x3cbe06d0	0.023196608
18	0xbcd74ffa	-0.026283253
19	0xbcde7e7e	-0.027159926
20	0x3d91da20	0.07121682
21	0x3b08e250	0.0020886846
22	0x3cf51617	0.02991776
23	0x3cc5ec3d	0.024160499
24	0xbcbec83c	-0.023288839
25	0xbcd60e97	-0.026130004
26	0xbbb84f4e	-0.005624688
27	0xbcdb9e81	-0.026808979
28	0xbd0f958f	-0.03505474
29	0x3cc3d7cf	0.023906616
30	0xbc50e3b8	-0.012749605
31	0xbcd1e96c	-0.025624
32	0x3d819d73	0.06328859
33	0x3d4b69e8	0.049661547
34	0x3d847bfb	0.0646896
35	0x3d284de6	0.041089915
36	0xbcb1a921	-0.021687092
37	0x3badd448	0.005304847
38	0x3d4e0a2e	0.050302677
39	0x3b6e913a	0.003640248
40	0x3c2463b6	0.010033539
41	0x3c940f6a	0.018073756
42	0x3d7eccda	0.06220708
43	0xbbf6f9aa	-0.0075370865
44	0x3d1a3aff	0.03765392
45	0xbc98adb7	-0.018637521
46	0x3bc2bc9a	0.005942893
47	0x3cbd9cec	0.023146115
48	0x3c1ecd9c	0.009692576
49	0xbc9f1c17	-0.019422574
50	0xbaa974ac	-0.0012928448
51	0x3bb0135e	0.0053734025
52	0x3c4be03a	0.0124435965
53	0x3d0f22ae	0.034945183
54	0xbd75ee58	-0.060041755
55	0x3d4e4771	0.0503611
56	0xbc71c0fb	-0.014755483
57	0xbb886831	-0.004162811
58	0x3aa203a6	0.0012360706
59	0xbbb1d8ad	-0.005427441
60	0xbb27e875	-0.0025620733
61	0xbd24c23b	-0.040224295
62	0xbd4efc17	-0.05053338
63	0x3d608f84	0.054824367
64	0xbd373680	-0.04472971
65	0x3bf33ce6	0.007423031
66	0xbca8485e	-0.02054232
67	0x3d7f53ed	0.062335897
68	0xbc3d156b	-0.011540751
69	0x3d174023	0.0369264
70	0x3d1fd6ca	0.0390232
71	0xbc370556	-0.011170706
72	0x3db0b7c8	0.086288035
73	0x3bd1a96e	0.0063983714
74	0xbcaf92be	-0.021432277
75	0xbc783402	-0.015149118
76	0xbc8cf4a1	-0.017206492
77	0xbc269315	-0.010166903
78	0x3d8d70ff	0.06906318
79	0x3dc8b63b	0.09800383
80	0x3bbf7138	0.005842354
81	0xbcfc5234	-0.030800916
82	0x3d9c50bb	0.076325856
83	0x3b36bd9e	0.0027884017
84	0x3cef9c56	0.029249351
85	0xbb258a02	-0.002525926
86	0x3c8430dd	0.016136581
87	0x3d5a6b5a	0.053325035
88	0x3bfd42f4	0.0077289287
89	0x3d33e6c7	0.04392126
90	0xbc891a9a	-0.016736317
91	0x3981c3e1	0.00024750739
92	0xbd37e01b	-0.044891458
93	0xbcdaa589	-0.026690261
94	0x3d705a96	0.05868014
95	0xbc42888c	-0.011873376
96	0x3c6b48c9	0.014360615
97	0x3bede8cc	0.0072604176
98	0x3bd95e32	0.0066335434
99	0xbbbde325	-0.0057949

fc_layer.2.weight f4 [10, 100]
0	0xbdbc66cc	-0.091992944
1	0x3ded47fb	0.11585995
2	0x3d0e5504	0.034749046
3	0xbd8341f6	-0.064090654
4	0x3d993596	0.07480924
5	0xbdce8434	-0.100838095
6	0xbe1c9714	-0.15292007
7	0xbeab57e8	-0.33465505
8	0x3ade3715	0.0016953672
9	0xbdb9bba8	-0.09068996
10	0x3d7343cc	0.059390828
11	0x3db7259a	0.08942719
12	0x3d248a16	0.04017075
13	0x3e0dc194	0.13843375
14	0xbea25df4	-0.31712306
15	0x3e0a2b54	0.13493091
16	0x3d8fef05	0.07028011
17	0xbe7edb59	-0.24888362
18	0xbd5baa61	-0.053629283
19	0x3d90210f	0.070375554
20	0xbe5f204c	-0.21789664
21	0x3d4443f3	0.047916364
22	0xbe2ea443	-0.17054848
23	0xbda7e082	-0.08197118
24	0x3e01c114	0.1267131
25	0x3d348fdf	0.04408252
26	0xbd4c5256	-0.04988321
27	0xbd2e3d28	-0.042538792
28	0xbe362d17	-0.17790638
29	0x3d1ef8d0	0.038811505
30	0x3d8a0b42	0.067404285
31	0xbdb34af5	-0.08754531
32	0xbe1a6dec	-0.15080994
33	0xbe45da0a	-0.19321457
34	0xbccb9888	-0.024853006
35	0xbdf7d780	-0.1210165
36	0x3db2cf5f	0.08730959
37	0xbe9e2dee	-0.30894417
38	0x3e033b2e	0.12815544
39	0xbe46733d	-0.19379897
40	0x3dc66b31	0.09688414
41	0x3d9022d1	0.07037891
42	0xbe8d3732	-0.27581173
43	0x3e1ddcc0	0.1541624
44	0x3d3d9998	0.046289057
45	0x3dfc00ea	0.12304862
46	0xbb89a665	-0.004200744
47	0x3dd66e6d	0.10470281
48	0xbd7f94a1	-0.062397603
49	0x3de8659a	0.11347504
50	0xbdb0ffc7	-0.08642536
51	0x3e00d275	0.12580283
52	0x3cb297c8	0.02180089
53	0x3d4de436	0.050266467
54	0x3e70ba35	0.23508532
55	0xbe0ec567	-0.1394249
56	0x3dfa3ed8	0.12219018
57	0xbd60e72d	-0.054907966
58	0x3dc0c2e2	0.09412171
59	0xbd71401f	-0.05889904
60	0xbcc281f2	-0.023743603
61	0x3cfc3c6c	0.03079053
62	0x3e046dd9	0.12932529
63	0xbe03193b	-0.12802593
64	0x3cceceb4	0.025245048
65	0xbe821f81	-0.2541466
66	0x3df47581	0.119364746
67	0xbe0fef81	-0.14056207
68	0xbdc560ba	-0.0963759
69	0xbdab7bbd	-0.083732106
70	0x3dc4d06d	0.096100666
71	0xbd926b82	-0.07149412
72	0x3df42b12	0.119222775
73	0x3e38e2d9	0.18055286
74	0x3d0c6935	0.03428002
75	0x3cde4426	0.027132105
76	0x3d379c70	0.044826925
77	0x3d8a380f	0.067489736
78	0x3a8a2fb5	0.0010542782
79	0xbdd5198c	-0.10405263
80	0xbe0264e8	-0.12733805
81	0x3d0df1c8	0.03465441
82	0x3e02194f	0.12704967
83	0xbd139d09	-0.036038432
84	0x3e4286c5	0.18996723
85	0x3de6bfdf	0.11267065
86	0x3d057809	0.032585178
87	0xbe40c1e7	-0.18823968
88	0xbdafe4c8	-0.085885584
89	0xbd8486a4	-0.06470993
90	0xbe2e5f8a	-0.17028633
91	0xbceddbc5	-0.029035458
92	0xbca7263f	-0.02040398
93	0x3d3b6007	0.045745876
94	0xbbe24f49	-0.006906424
95	0xbd63548c	-0.055500552
96	0xbd787904	-0.060662284
97	0x3d174512	0.036931105
98	0x3d2abfbd	0.041686762
99	0x3e4cd33a	0.20002452
100	0xbda921ff	-0.08258437
101	0xbe9475ee	-0.28996223
102	0xbdbc7d5b	-0.09203597
103	0xbd13991d	-0.036034692
104	0x3d59b051	0.053146664
105	0xbcc2320d	-0.023705507
106	0xbda0b006	-0.07846074
107	0xbe1fc729	-0.15603317
108	0xbe0e4ff7	-0.13897692
109	0xbdabd5bd	-0.08390377
110	0x3c0497e9	0.008092859
111	0xbdb608c6	-0.08888392
112	0x3e2d6948	0.16934693
113	0x3c93bbb5	0.018033842
114	0xbe7aea88	-0.24503529
115	0x3dece8f0	0.11567867
116	0xbe0e5774	-0.13900548
117	0x3c034d7b	0.008014078
118	0xbcaca403	-0.0210743
119	0x3d7bee91	0.06150681
120	0xbe170b01	-0.14750291
121	0x3e190918	0.14944875
122	0xbba1ec93	-0.004941532
123	0x3c4fbd97	0.012679479
124	0xbe8e71d7	-0.27821228
125	0x3b1882f4	0.0023271414
126	0x3dcfc9a4	0.10145882
127	0xbd9f06fa	-0.077650025
128	0xbe04a56d	-0.1295373
129	0xbe88f843	-0.2675191
130	0x3db8c5d7	0.0902211
131	0xbe0c2ecc	-0.13689727
132	0xbdd813b2	-0.105506316
133	0x3d6e1ab7	0.058130946
134	0x3da3a288	0.07989985
135	0xbe189a2f	-0.14902566
136	0x3d9e9869	0.07743914
137	0x3dbde810	0.09272778
138	0x3cdd43be	0.027009841
139	0x3e77f387	0.24213992
140	0xbe6bbc23	-0.23020987
141	0xbda14cca	-0.078759745
142	0x3e446b00	0.19181442
143	0xbd1fcb11	-0.03901202
144	0xbd6cd383	-0.0578189
145	0xbd076e21	-0.03306401
146	0xbde4ad0a	-0.11165817
147	0xbe893894	-0.26800978
148	0x3bf0e139	0.0073510674
149	0x3e3a1d5d	0.18175264
150	0x3d44340b	0.047901195
151	0xbd2158bf	-0.039391275
152	0x3d183eec	0.037169382
153	0x3d74fca0	0.059811234
154	0x3dddbde7	0.108272366
155	0xbe8d50f8	-0.27600837
156	0xbe393285	-0.18085678
157	0xbd3c34be	-0.045948736
158	0xbc67fdd2	-0.014159637
159	0xbcdc091f	-0.026859818
160	0x3c5baa79	0.013407343
161	0x3cff0781	0.031131508
162	0x3e058551	0.13039137
163	0x3dfc499d	0.12318728
164	0xbe3207f5	-0.17385848
165	0x3e46847e	0.1938648
166	0x3e12d7de	0.1434016
167	0xbe87b8a4	-0.26508057
168	0x3c4a2719	0.012338423
169	0xbe3fd728	-0.1873442
170	0xbdb6b89a	-0.08921929
171	0x3cc33b58	0.023832008
172	0xbdfe2067	-0.12408524
173	0xbd8f734e	-0.070044145
174	0x3db994e5	0.090616025
175	0x3d1b784a	0.037956513
176	0xbd8cc0a2	-0.06872679
177	0xbd9efa48	-0.07762581
178	0x3b03460c	0.0020030765
179	0xbe8a45cc	-0.27006376
180	0x3e27b931	0.16379239
181	0x3de30eea	0.11086829
182	0xbd0fde4b	-0.035124104
183	0xbd42894d	-0.04749422
184	0x3c1833c0	0.009289682
185	0x3df492d9	0.119420715
186	0x3dacf797	0.084456615
187	0xbe07bd17	-0.13255726
188	0x3daa16b2	0.0830511
189	0x3e22392e	0.15842125
190	0x3e7f008c	0.24902552
191	0x3e148a95	0.1450599
192	0x3d89da02	0.06731035
193	0x3e1cd029	0.15313782
194	0x3d6c9760	0.05776155
195	0xbdcc71d6	-0.0998265
196	0x3d79c138	0.060975283
197	0x3a260866	0.0006333649
198	0xba0475d8	-0.00050529605
199	0xbe8ade05	-0.27122512
200	0xbbef5ee1	-0.0073050116
201	0x3e3a4251	0.1818936
202	0x3c7cce41	0.015430034
203	0x3d8bf84e	0.0683447
204	0xbd957b9c	-0.07298967
205	0x3c9d672e	0.019214239
206	0x3e087b7a	0.13328353
207	0x3d29b5b6	0.04143306
208	0x3e12146d	0.14265604
209	0xbe4f8b90	-0.20268083
210	0x3dba606f	0.091004245
211	0x3db1b5fe	0.086772904
212	0xbd51faac	-0.05126445
213	0x3d43178f	0.04762989
214	0xbc829f55	-0.015945116
215	0xbe83955b	-0.25699887
216	0xbe4077dd	-0.18795724
217	0xbe2a0f27	-0.16607343
218	0xbd7dfeb4	-0.062010482
219	0x3e0ded2d	0.13860007
220	0xbe0ff9cc	-0.14060134
221	0xbd6fe645	-0.05856921
222	0x3ddb5ef3	0.107114695
223	0x3d8ebc39	0.069694944
224	0x3dd7e0cc	0.105409235
225	0x3dea66b9	0.11445374
226	0x3d729b40	0.05923009
227	0xbc9cea83	-0.019154793
228	0x3e835e5e	0.25657934
229	0xbbf26d65	-0.0073982948
230	0xbcce9aba	-0.025220264
231	0x3e73a577	0.23793589
232	0xbd974600	-0.07386398
233	0x3d062406	0.0327492
234	0xbe45a844	-0.1930247
235	0xbdc0d0a2	-0.094147936
236	0xbdd738e7	-0.105089
237	0x3e3a98f6	0.18222412
238	0xbe40ed0e	-0.18840429
239	0x3d449856	0.04799684
240	0x3e0379a0	0.12839365
241	0x3d9c5b27	0.076345734
242	0x3d2fe2fd	0.042941082
243	0x3e98ac53	0.29818973
244	0xbe7894cb	-0.2427551
245	0xbe170104	-0.14746481
246	0xbe56e0b4	-0.20984155
247	0x3db2deb8	0.087338865
248	0x3d96c0c1	0.07360984
249	0xbd9a3aa7	-0.07530718
250	0x3d95c0ca	0.07312162
251	0x3e827069	0.25476387
252	0xbd8e8b02	-0.069601074
253	0xbd945b68	-0.07243997
254	0x3e02fc2c	0.12791508
255	0xbe5f322f	-0.21796487

fc_layer.2.bias f4 [10]
0	0xbdb3fa4b	-0.08787974
1	0xbd98aeaa	-0.074551895
2	0x3d17558a	0.03694681
3	0x3dbf3992	0.093371525
4	0x3de61d43	0.1123605
5	0x3a7463ae	0.0009322715
6	0x3e198496	0.14991984
7	0x3b8e66e7	0.004345763
8	0xbddad6d0	-0.106855035
9	0x3df3e3e1	0.11908699
